examples/timeseries/lstm/lstm_model.pth (torch, 20533 bytes, 9 tensors)

lstm.weight_ih_l0 f4 [64, 12]
00000000: 3df5 133e ecfc 1a3e a071 11be 47f3 44bd
00000010: 5dfc 0a3e 97ab 8a3e 4c76 3abe 0479 133e
00000020: 8554 53be 50d8 1f3e 002d 853e 5705 183f
00000030: 0a89 26bd f582 323d de9f 523e c8bb 2ebe
00000040: f5cb 90be 2f12 c8bb 7714 0a3f 512c fc3d
00000050: 2bd4 783e 79ba bbbd 3758 c33e 849e a53d
00000060: 3c0d d33d 8ba4 473d ab02 b73d 8d9c ebbd
00000070: e211 0e3d 7eda a33d d187 8f3e db60 b4bd
00000080: efdd 573d 4338 0dbc 7345 87be f02c e2bd
00000090: c450 633e fb36 023e fb01 563e 1e19 9e3e
000000a0: 19e8 403d 42ca c53d 8463 133e c5e4 12be
000000b0: 2f6d cfbd 49db 9bbc 91fa e4bc 114b e93d
000000c0: 6341 5e3e b920 bb3e 200c 43be 4666 cdbe
000000d0: f34c 0d3d 8443 f83e 8e9b a1bd dc06 453d
000000e0: d02d cdbd 9911 83b9 bf04 a9bc 92e3 0f3e
000000f0: 2849 e23d 895c e53d 812f 5ebd 363b de3d
00000100: df4b 993c 1b80 693e eaa8 893e 7954 86be
00000110: bf32 4dbd d4e9 ffbd 6037 dfbd daeb da3d
00000120: 4029 c9b8 5322 cb3d d905 9aba bf29 e9bc
00000130: 9643 eeba 1936 013e 2666 a93e def9 5bbe
00000140: ecf6 16be d412 883d 3993 65bd 1c62 113d
00000150: 4564 c4bd ab78 df3d dda0 c83d 867e e2bd
00000160: 82a2 fe3c fbba b43c ac9f ad3e 02dc 63be
00000170: d8b9 8fbc 3ff8 55bd a542 313e 4dc2 133e
00000180: 998a b93d 03d7 7b3e 48ff 113d e8fd d4bd
00000190: 565c 013e abbb b03d 3321 303e 2ada 2fbd
000001a0: c769 be3d e28c a53d 4f18 333e 82fe 823e
000001b0: 855f 07be 6ed4 833e 38ad 3dbe 029f 45bd
000001c0: 6b5a 55be 5596 ad3e a7f0 c93c 451b f03e
000001d0: 5f58 543d 52a8 52be 85d2 193e 4abf fc3d
000001e0: 5422 acbc 01d5 3a3e 2fad 013c 9a6d e4bd
000001f0: 8704 083e b646 a83e 2cb9 113e be8f 74be
00000200: 739f 153d e10d 6a3d 3d63 4d3d 9a37 883e
00000210: 2189 cfbd 3bdf 733d 5017 39be ed66 f93c
00000220: abf8 1cbe 11fe 42be f779 a33e 816c 07be
00000230: da4e ad3c a21c d6bd b3b5 d4bc 7ae5 34bd
00000240: 6093 c5bd a2af 813e 426d eebc 034f 24be
00000250: f70a 893d f5aa a53e c1db 2f3e 5004 5abe
00000260: e87d a93c b7c6 853c d7c3 b0bd 0624 643e
00000270: a5c3 133e 0824 f83d 40b7 e33d dc15 4e3c
00000280: ec8b 083e e4a7 893e 508c 1d3e 4c92 efbd
00000290: 0f3d 663c dbea 003e e03d 4c3d ef31 723d
000002a0: 967f 7abd 656e a83d 7ee7 6d3d a4e3 883c
000002b0: daa6 3abe 074d 87be 96c3 bd3e 61b8 e03d
000002c0: c1aa be3d 29d1 1bbe ee77 7bbd bcf3 75be
000002d0: 54ba b6bd 7adb 0cba bc93 a1bd 20f4 c2bd
000002e0: 8d3d 26be 7972 5bbe 81c4 f43e db35 783c
000002f0: 1879 19be ed17 3ebe 39ca 603e a7b4 acbd
00000300: ec5b 90bc a24a 44bc 6cf2 ecbd 6883 ffbd
00000310: 04f2 9a3c 0ee6 f53d 93a7 09bf edcf c93e
00000320: 217d b1bd cefe b1bc 1f7e c73d 96df ca3e
00000330: c2e0 a53d c00c 143d 41cb 413e 681d 623e
00000340: 07d1 263e d00c 00be 9180 4ebc 39f5 b73d
00000350: acc7 113e 75f0 513e e17f a73d 0b58 21bc
00000360: 9f3b df3d 5cc1 1a3e e996 d93d 50dc 21bd
00000370: e723 db3d 1186 213c 7e01 583e c3a6 5c3c
00000380: 2883 2e3c f472 893d 2285 b9be 13f5 04be
00000390: 392f 1f3e abe5 bb3e de3e a9bd c0b5 eabc
000003a0: 6fcd 81bd 1f6d 56bd ad0b 3c3e bbf7 953d
000003b0: 15f1 a3be 2878 46be d0a8 7d3e 7dae 013e
000003c0: a009 553e a66e 273e fd77 83bc b6fc 6e3e
000003d0: c234 3a3e cee2 de3d 66b1 96bc be56 253c
000003e0: 1b33 e6bd 068b 9e3c 6453 5dbd 9ef4 44be
000003f0: 9252 933e 476b 963e 7a26 b4be 3af6 6d3c
0.1444902 0.15135545 -0.14203501 -0.04808357 0.13572831 0.27084038 -0.18209189 0.14401633
-0.2063771 0.1560986 0.26010895 0.5938315 -0.040658034 0.04358192 0.20568797 -0.1706382
-0.28280607 -0.0061056833 0.53937477 0.1231314 0.24299686 -0.09166426 0.3815324 0.08086875
0.10305259 0.048740905 0.08936056 -0.11504469 0.034685023 0.080006585 0.28033307 -0.08807536
0.052701887 -0.008619371 -0.26420173 -0.110437274 0.22198778 0.12716286 0.20899193 0.30878538
0.047096346 0.09657718 0.14393431 -0.14345081 -0.10128247 -0.019025462 -0.02795151 0.11391271
0.2170463 0.36548403 -0.19047594 -0.4011709 0.034497213 0.4848901 -0.07890998 0.048102245
-0.10018504 -0.00024999378 -0.020632146 0.14051655 0.1104911 0.1119929 -0.054244522 0.10851137
0.018712936 0.22802775 0.26886684 -0.26236323 -0.050097223 -0.12495771 -0.10899234 0.10689516
-9.59211e-05 0.09918656 -0.001175101 -0.028462289 -0.0018178101 0.12618293 0.33085746 -0.21482036
-0.1474263 0.06644216 -0.056048606 0.035493955 -0.095894374 0.109116875 0.09796307 -0.11059289
0.03108335 0.022061815 0.33910882 -0.22251895 -0.017544672 -0.0522387 0.17310579 0.14429589
0.090596385 0.24593739 0.035643846 -0.10399991 0.1263288 0.08629545 0.17200164 -0.042932667
0.09297519 0.08083512 0.17489742 0.255848 -0.13220032 0.25748008 -0.18523109 -0.048247345
-0.20835273 0.33903757 0.024650885 0.46895805 0.05184209 -0.20572022 0.15021713 0.12341173
-0.021012463 0.18245317 0.007914825 -0.11153717 0.13282977 0.32866448 0.14230794 -0.23882958
0.036529016 0.057142142 0.05014347 0.2660492 -0.10133577 0.05953906 -0.180753 0.030444587
-0.15329234 -0.19042231 0.3192899 -0.13224985 0.021155763 -0.1045468 -0.025965547 -0.04416416
-0.0964725 0.2532931 -0.029104833 -0.16045766 0.066915445 0.32356992 0.17173673 -0.21290708
0.02068992 0.016330106 -0.086311035 0.22279367 0.14430101 0.121162474 0.111189365 0.012578454
0.13334626 0.26885903 0.15385556 -0.11697826 0.014052643 0.1258959 0.049863696 0.05912965
-0.06115683 0.08224181 0.058082096 0.01671011 -0.18227711 -0.26425955 0.37063283 0.109726675
0.093099125 -0.15216507 -0.06139367 -0.24018759 -0.08922258 -0.0005373281 -0.07889506 -0.095192194
-0.16234417 -0.21430387 0.4780617 0.015149559 -0.149876 -0.18563814 0.21952142 -0.08432894
-0.017621957 -0.0119806845 -0.11569676 -0.12476236 0.01891423 0.1200677 -0.5377132 0.39416447
-0.086664446 -0.021727946 0.097408526 0.39623708 0.0809951 0.03614497 0.18925191 0.2208153
0.16290675 -0.12504888 -0.012603895 0.089823194 0.14236325 0.20501883 0.08178688 -0.009847651
0.10900044 0.15112823 0.10624487 -0.039516747 0.10700207 0.009858624 0.21094319 0.0134674935
0.010651387 0.06711379 -0.36234385 -0.12984113 0.15545358 0.3669866 -0.08263944 -0.028651118
-0.063380115 -0.05235016 0.18363829 0.073226415 -0.32019868 -0.19381773 0.24771428 0.12664218
0.20804453 0.16350803 -0.016048426 0.23338589 0.18184188 0.10883103 -0.018395137 0.010091482
-0.11240216 0.0193534 -0.054034606 -0.19233939 0.28773934 0.2937872 -0.35185605 0.014524037

lstm.weight_hh_l0 f4 [64, 16]
00000000: 8db7 d3bd b6a6 513d e9d5 4c3c 5b16 4e3c
00000010: 0c3e 9dbd dc90 e13d 5075 ad3d e52a ad3c
00000020: 5ad0 fc3d f35b 003d ae85 083d 8436 ea3d
00000030: fbd1 00bd 7de0 4f3e 8e95 963d 682d acbd
00000040: 1ad5 ea3d 2cfe 30bd 0765 0f3d 21be 7a3c
00000050: bf9d 5bbe 63a4 c4bd fb14 ccbd 6c97 d9bd
00000060: d9b0 31bd 111b d6bc d847 cd3d 9ccc 1cbd
00000070: bd80 313d 88a8 4e3e 80b9 423d b318 66be
00000080: a177 7e3c 30b3 81bc dd9d 7bbd 5cc5 8a3d
00000090: e026 8cbd aea3 adbc a112 0abd 9b71 d9bc
000000a0: ad5e fe3b a4a1 54bd ed45 493c 25cb 16bd
000000b0: 6eb7 a73c 8bfc fd3c ecd2 d7bc 94c7 4bbd
000000c0: f9e3 043a 5ed4 23ba e226 d9bd 0a42 a63d
000000d0: 6c2d cebd 2a6f 9b3c b366 5e3c c31c a53c
000000e0: f2b9 74bc 1630 ddbc 3622 d9bc 217f 743d
000000f0: 7ec3 e8bb b0a2 f73c 56d2 9f3c 9f6a 02bc
00000100: c1d9 64bd 2beb 843c 1392 ac3d dc5f 84bd
00000110: 2f60 c43c 0290 d53d 4702 d13d 9bb4 813c
00000120: 08f2 803d d6d4 9ebd e2da 42bc 4805 ca3b
00000130: 27ae 29bd 42cd 15bd 8aeb 53bc f29b 453d
00000140: 9fdf 08bd 4a6a b4bc 22d5 06be 6b90 a73d
00000150: c979 08be bd59 223d 49a4 2b3c af75 f9bb
00000160: 5814 f93c 13b0 23bd 2d56 4e3b 86df f83d
00000170: 3fba 203b 2d9f 0ebb 5ac5 173d 0796 79bd
00000180: c78f 1abd 15a3 573b f541 14be cb28 fe3d
00000190: 10c0 11be 2ea0 df3b 173f 0dbd e8c3 17bd
000001a0: d46a 1f3d 365c 92bd 909d c93c bb53 fd3d
000001b0: 6f71 1a3d 7a2f 8c3c b3de 183c e255 a7bc
000001c0: fcb7 13bd fe2f 47bd e7c9 ddbd ffe9 913d
000001d0: 4803 c7bd d42c 503d 9596 0dbd 4c6a 20bd
000001e0: de31 d43c 2f3e 56bd 4dba e03c 6279 bb3d
000001f0: d4a3 673c c227 a73d 84f5 c23c d1bb b6bd
00000200: c020 8dbd 2502 29bc eb6f 91bd 0b1d 933d
00000210: 1cd6 bbbc b56c 333d 6782 f63b 342e 09bd
00000220: ec6f d63d dd7b 2b3d fd65 a13d 9ad4 923d
00000230: b946 d5b9 2640 1f3e df04 04bd 9a49 adbd
00000240: ee6d 12be 302c 62bd ff3b 813c de66 7ebd
00000250: 24d7 b53c bc60 ab3d 8376 9c3d fa2b 253d
00000260: f75c 143e 2419 633d f82d 923d 0e13 abbd
00000270: f45a 2e3b 84ac 79bb 084f d7bd a9e9 5a3c
00000280: 3e46 1bbd cb81 62bd a0f5 7ebd 3585 893c
00000290: 50b7 f3bc d120 33bb d1a7 90bd 86f8 23bd
000002a0: f525 113c 9187 e43b c643 513d 1baa 113e
000002b0: 031f 113d 8c5e 9e3d dfba f43d e006 07be
000002c0: 9943 da3c 0e16 013d c409 5f3c 8fea fabb
000002d0: 993b e8bd c8e0 ca3d 3e91 263d 00bd 2c3c
000002e0: 66fd 8abd 908b a4bd 3230 01bd dac1 d83c
000002f0: c427 4cbd 057c 033e 3a27 b43d 162b 33bd
00000300: 65f9 f0bc eccf 50bd 7b5c 8bbd bb73 ef3b
00000310: 5865 96bd 7355 0a3d b8fc 80bd bde6 cdbc
00000320: 3b6e 773c 46e3 dbbb 8703 6a3d 7787 113e
00000330: 4b48 ea3c 2d96 6a3d ac84 b63d cfdd adbd
00000340: 8e1d 89bc 4fc9 783c 5655 74bd f8f0 0c3e
00000350: 2778 9abd 5ae2 1e3d d05a 3d3d 92ee c13b
00000360: 2449 623c 876b e33a b434 5fbc 21eb a43d
00000370: 4a6c 56bc 1107 223d 4b63 f63b 1cab 0abd
00000380: 7278 9cbd 1071 35bd 78cc 00be 5d67 053e
00000390: 1017 27be 7a87 073d 4372 903c 33e7 6fbc
000003a0: b2dd 943d 9ee8 cfbd 7103 dcbc 35e1 b2bd
000003b0: 9d2f 5c3c b88f 5f3d 0dbd 01bd 06f4 4ebd
000003c0: b46d 033d 7daf 603b 831c 333e 1dfe 1bbd
000003d0: 2f32 66be 7bb2 e3bb ba6c 52bd 6c5c 39bd
000003e0: 444f cabd a6ee 07bd 071e ac3c be90 a8bd
000003f0: d340 b6bb e34c 1b3e 582d 133e 16f1 97bd
-0.10337744 0.05118438 0.012502172 0.012578572 -0.0767785 0.11013958 0.08469641 0.021138618
0.123444274 0.03133769 0.033330612 0.11436179 -0.031450253 0.20300479 0.07352744 -0.08407098
0.11466427 -0.043211147 0.035008457 0.015304119 -0.21446894 -0.09601667 -0.09964939 -0.106245846
-0.043381546 -0.026135953 0.10023469 -0.03828107 0.043335665 0.20181477 0.047540188 -0.2247036
0.015531451 -0.015832514 -0.061429847 0.067759246 -0.06843352 -0.021196213 -0.033709172 -0.02654343
0.007762751 -0.051911965 0.012284738 -0.036814827 0.020473208 0.031004211 -0.026345693 -0.04975088
0.0005069371 -0.0006249602 -0.106031194 0.08118065 -0.10067257 0.018973906 0.01357429 0.020155316
-0.014936911 -0.027000468 -0.02650557 0.059691552 -0.0071033826 0.030228943 0.019509476 -0.007959991
-0.05587173 0.016225418 0.08426299 -0.06463596 0.023971645 0.10427858 0.102055125 0.01583319
0.06296164 -0.07755439 -0.011893006 0.0061651804 -0.04142585 -0.036572702 -0.012934575 0.048244424
-0.033416387 -0.022023339 -0.13167241 0.081818424 -0.13327707 0.039636362 0.01047618 -0.007612906
0.030405208 -0.03996284 0.003148447 0.12152009 0.0024525074 -0.0021762357 0.037053443 -0.060934093
-0.037734773 0.00329036 -0.14478286 0.124101244 -0.14233422 0.006824515 -0.034483995 -0.037052065
0.03892024 -0.07146494 0.024611264 0.12369486 0.037705835 0.017112482 0.009330439 -0.020426694
-0.036064133 -0.048629753 -0.108295254 0.07124709 -0.09717423 0.050824 -0.034567434 -0.039163873
0.025902685 -0.052305397 0.027432585 0.09154011 0.014138181 0.0816188 0.023798712 -0.08922542
-0.06891012 -0.010315453 -0.07101425 0.07183274 -0.022929244 0.043804843 0.0075228694 -0.03349133
0.10470566 0.041866172 0.07880781 0.07169457 -0.00040679218 0.15551814 -0.032231208 -0.08461304
-0.14299747 -0.05521792 0.015775679 -0.06210982 0.022197314 0.0836806 0.07639792 0.040325142
0.14488588 0.055443898 0.07137674 -0.08353244 0.0026604505 -0.0038097212 -0.10513121 0.013361373
-0.037908785 -0.05529956 -0.062245965 0.01678715 -0.029750496 -0.0027332793 -0.070632584 -0.040031932
0.008859147 0.0069741686 0.051090024 0.14225046 0.035429966 0.07732877 0.11949705 -0.13186216
0.026643561 0.031515174 0.013613168 -0.007657356 -0.11339492 0.09906155 0.040665857 0.010543108
-0.06786613 -0.08034432 -0.031540103 0.026459623 -0.04984261 0.12840278 0.087965444 -0.04374226
-0.029415796 -0.05097954 -0.068047486 0.0073074973 -0.073435485 0.033772897 -0.06298202 -0.025134439
0.015101965 -0.0067104427 0.05713227 0.14211832 0.028598925 0.057272125 0.08912024 -0.08489572
-0.016737726 0.015184714 -0.059651695 0.13763797 -0.075424485 0.038790084 0.046229184 0.0059183324
0.013811383 0.0017350771 -0.013623405 0.0805266 -0.013087342 0.03955752 0.007519161 -0.03385459
-0.076401606 -0.044297278 -0.12577999 0.13027711 -0.16317391 0.033088185 0.01763261 -0.0146425245
0.072688475 -0.1015179 -0.02685711 -0.08734361 0.013439086 0.05458042 -0.031674433 -0.050525688
0.032087043 0.0034284287 0.17491345 -0.03808414 -0.22480081 -0.0069487668 -0.05137322 -0.045254156
-0.098784 -0.033186577 0.021010412 -0.082307324 -0.005561927 0.15166049 0.14372766 -0.0741903

lstm.bias_ih_l0 f4 [64]
00000000: 6e58 ba3e 8793 f13d 80b1 823e 9d34 2c3e
00000010: b307 39bd 6f26 e93e 2cc8 083f ea8b f53e
00000020: 3403 d93e ce24 093e b5f0 a03e 6200 3c3e
00000030: 2de6 893e dc85 753e aade 8b3e 09d7 913e
00000040: 85ad ea3c 2fad 55be 090a 413e bc2a a23d
00000050: e128 543d 2c8e 75be aa79 5cbe 431b 80be
00000060: 0be9 e53d 8756 4e3d 152c 42be 6338 3f3a
00000070: c48e 09be 0a8b 9ebb 0053 a8bd df64 50be
00000080: cc0a 5fbe 0574 b13d 0b34 b6be 1a25 973e
00000090: dec3 a2bd 12de 93bb abbb 073e cdb0 4bbe
000000a0: 9df1 5d3e d8ab 463e 9517 973d 5764 833d
000000b0: e96a 763e 7f2a 89be 4c71 4fbe a5b3 433e
000000c0: 5bfb f73e 75f6 3a3e 188a 143e d34f 92bc
000000d0: 9472 ef3d 07c7 ec3e 126f 043f 6d9f e03e
000000e0: f95c e93e 65bf 4e3e 7337 d03e eac1 4a3e
000000f0: 27d7 bf3e 637b c03d 275b 883e 0190 df3e
0.36395591 0.11795717 0.25526047 0.16816945 -0.04517336 0.45537135 0.5343044 0.47958308
0.42385256 0.13392946 0.31433645 0.18359521 0.26933423 0.23976845 0.27318317 0.2848437
0.028647194 -0.20866846 0.18851484 0.07918307 0.051796798 -0.23980016 -0.21530786 -0.250208
0.1122609 0.050375488 -0.18962128 0.0007294474 -0.13433367 -0.004838352 -0.08218956 -0.2035098
-0.21781462 0.08664707 -0.3558658 0.29520494 -0.07947515 -0.004512557 0.13255183 -0.19891663
0.216742 0.1940149 0.07377545 0.06415623 0.2406422 -0.26790234 -0.20258063 0.19111498
0.48433957 0.18258078 0.14505804 -0.017860329 0.11691776 0.46245596 0.5173198 0.43871632
0.45578745 0.20190199 0.40667304 0.19800535 0.37468836 0.09398534 0.26632044 0.43664554

lstm.bias_hh_l0 f4 [64]
00000000: 1b4c 753e 9a63 663e 4726 603e 4236 bf3d
00000010: f70c 553d 158b ea3e f648 003f e678 e13e
00000020: 4c5a ea3e 735c 473e 4b77 9b3e 7ccf 533e
00000030: 7f76 9d3e ec00 8d3e 0ce4 a13e a088 9d3e
00000040: ebc0 f63d d3e3 4fbe 6181 3c3e 2d2f 113e
00000050: a829 df3c 13d5 66be 3f0d 7cbe 12b4 61be
00000060: f6d1 413d 5873 e93c fe94 46be e4df 15bd
00000070: d0e7 03be 75ba 85bc 920c ddbd 2ba3 27be
00000080: 3391 8cbe 90a5 3ebe 062e cebe 3ac3 913e
00000090: ce3e 2abd f0bc dbbd 0291 37be e2a7 133e
000000a0: 4e39 793e d15b f53d 0945 bf3d 40c5 313c
000000b0: 7414 80bd 43df 9c3d f2cb 09be dbc0 993d
000000c0: 812f ea3e e951 503d e412 713e 01ef dc3d
000000d0: f7aa 203e 2a46 f43e 5696 0c3f 29f0 fd3e
000000e0: 893a f53e 6dca 623e 09bb ce3e cefe 203e
000000f0: 0006 be3e c360 0e3e 1e54 b03e 186d 4f3e
0.23954813 0.22498932 0.21889602 0.09336521 0.052014317 0.45809236 0.5011133 0.4403755
0.45772016 0.1946886 0.3036445 0.20684618 0.30754468 0.27539766 0.31619298 0.307683
0.12048515 -0.20301752 0.18408729 0.14178152 0.027241543 -0.22542219 -0.24614428 -0.22041348
0.047319375 0.028497383 -0.19392774 -0.036590472 -0.12881398 -0.016324261 -0.10793413 -0.16370837
-0.27454528 -0.18617845 -0.40269488 0.2846926 -0.0415638 -0.10729396 -0.1792641 0.14419511
0.24338266 0.11980403 0.09339339 0.010850251 -0.06253901 0.07659771 -0.13456705 0.075074874
0.45739368 0.050859366 0.23542362 0.10787774 0.15690218 0.4770978 0.54916894 0.4959729
0.4789622 0.22147532 0.40377071 0.157222 0.37113953 0.13904099 0.34439176 0.2025646

lstm.weight_ih_l1 f4 [64, 16]
00000000: 650b 253d f28f b339 c9a2 713c 8083 84bc
00000010: c1bb 86bc 84fd 3b3d bcc7 773c 0b17 8c3c
00000020: 10de 72bd 34c4 08bd 6962 8cbc 6a91 5e3c
00000030: eb34 97bc e50c 3b3d a437 60bc 8c4a 3c3c
00000040: f305 e3bc 4cdb c93c deb6 3e3d bec4 16bc
00000050: 1732 1a3d 2baf 833d 03a4 e0bb f390 f43c
00000060: ffe6 8e3c 1a11 583d 2380 5a3c 3031 8abb
00000070: c063 39bc a40c 183d c19d c13d 58d7 6cbd
00000080: 0fb1 b63c 8f82 b9bc f9f9 f4bd d42a 51bc
00000090: 4373 1abe 43e0 313d a4a2 603d 15f5 1dba
000000a0: 9500 72bc 987b a7bd 5bdd 87bc e0dc 433d
000000b0: 0edd 99bd 19fc c93a 7d0b 0f3d f22e 1d3d
000000c0: 939b a53d fd03 83bb 2a1a acbd 0b3c 473e
000000d0: b6c7 63bd c6eb 5d3d b112 91bd 26ce 9abc
000000e0: adf1 29bd 2db5 fabc 05e3 9f3c 77dc 3b3e
000000f0: 46a4 333c 5e44 f83d cafc e0bd 8a1b c43d
00000100: fb1f 443d ef2e 383c 1bd2 0abd b91b ce3d
00000110: 34c2 0fbe fc1f 723e 50d7 a23d 61e8 ea3d
00000120: 1a67 c0bd 3446 1bbc 1bf0 c2bc 86e6 173e
00000130: 296d 62bd 15b9 f53d 3bef 0d3d 2481 233d
00000140: eba8 12be 5d5a 0c3d 01db 1ebd 6b00 213e
00000150: 5f98 8bbd 700a eabb 26e5 56bc 40bc 66ba
00000160: 3141 d93d 36b4 823d 84a4 8f3d 7574 993d
00000170: c952 a93c 817b 0cbd f399 bf3a ee75 a8bc
00000180: 6dbf cabc 0a48 b83c 0eba efbd e777 88bc
00000190: 22d1 f4bd ec74 2bbc 2320 213c 916b cabb
000001a0: bee6 9c3c 5c04 11bd f684 bebb a416 0dbc
000001b0: 6be9 f4bc 33d8 cbbc 89aa 81bd 506e f9bb
000001c0: 4589 68bd bd46 7fbc d434 ad3c 8192 403b
000001d0: 50c5 2dbc 5887 11bd 184d 19bc e9b4 8cbc
000001e0: 17e5 4b3d 39fb 503d a139 203d f50d afbc
000001f0: fbbb 303d ad9c d6bc dd3e 903d 5775 2dbd
00000200: 5f2f dc3d 4047 c8bc 7b7e 7fbd 54b0 2b3e
00000210: 11be dbbd 2e15 0d3d a9b7 bbbd 1d49 9bbd
00000220: 1650 14bd 54f5 c2bd df8b 3a3d 217b b13d
00000230: cddd 463d ba84 063e 97d9 bebd 7d75 043e
00000240: 5984 ca3c 9fd2 db3c 2cad b9bd 963a fc3b
00000250: 139d 45be be47 353d 1943 903d 053c 883c
00000260: 6e18 33bd f99b b1bd a65b f6bc 11f3 80bc
00000270: 47ef afbd e2e7 2b3c a77e e8bc 9eb4 843d
00000280: 66b1 44bd 77f1 12bc 81b3 a63c 1d7d dd3d
00000290: 6a46 12bd 0550 953c e851 fbbb 6177 eab9
000002a0: 5eb0 ef3c 5441 453c 9d72 a83c 0e5e 973b
000002b0: 5b22 503b 8853 b4bc fa3d 21bd 13f9 333d
000002c0: 4d16 133d 8cc2 323d 2a89 66bc 7e19 283d
000002d0: 8eb7 d5bd e716 28bc b274 773c b86d 983b
000002e0: efac 3fbd 2fea 79bd 2f40 febc 433d 0fbd
000002f0: b565 24bd 915f e93b eca8 c3bd 617e d23d
00000300: 4d3e 73bd 05ed 9dbd ee84 4dbe 4b03 473d
00000310: 4814 f0bc 7b4d adbd 68dc c1bd 5898 2cbd
00000320: 00fa a43d cb32 b9bc 7e33 003e 9c3b 39be
00000330: a6e3 6e3d b14d 8fbd 5e82 2fbe 17f8 843d
00000340: eec7 823e 49f9 e23d 2c5d 2cbd 25d4 d83d
00000350: efeb 27bd 2fe5 ca3e fcd5 893e 2644 ad3e
00000360: 368c a4be c027 c6bd 9b91 12be c284 fcbc
00000370: c8da 62be c282 d43d bcdb 233e bcc9 40be
00000380: 5e07 c73d 9608 f43c 7190 c23c 4168 4e3d
00000390: 1716 eabd 40e9 d63d a9cc 0d3e 3903 5d3d
000003a0: cdc2 d5bd f3df d7bd f011 8ebd 0d02 143d
000003b0: 1026 10be 6a9d 653d 3d1b 2f3c f36c 07bd
000003c0: 5e86 383d 7313 0a3d 8119 8dbd ad44 ac3d
000003d0: ff97 93bd 983b c438 3e10 3d3c f734 953a
000003e0: 3d5f 34bd 2d39 fdbc ac1d efbc 4d8b 113d
000003f0: ccac 0dbd 1a28 483c 1724 58bd 719d a93d
0.04029407 0.00034248788 0.014748284 -0.016175985 -0.01644695 0.04589607 0.015123304 0.017100831
-0.059293807 -0.03339024 -0.01713677 0.013584474 -0.01845785 0.045666594 -0.013685141 0.011492383
-0.027712798 0.024640702 0.046561114 -0.00920218 0.037645426 0.06429895 -0.006855489 0.029854273
0.017444132 0.052750684 0.013336214 -0.0042172894 -0.011315286 0.03712143 0.09453917 -0.057822555
0.022301225 -0.022645263 -0.11961741 -0.012766559 -0.15083031 0.043426763 0.054842606 -0.0006025595
-0.014770647 -0.081778705 -0.016585043 0.047818065 -0.07512866 0.0015410214 0.034923065 0.03837485
0.08086314 -0.003998278 -0.08403428 0.19456498 -0.05561038 0.05417993 -0.07083643 -0.018897127
-0.041490246 -0.03060397 0.019517431 0.1834582 0.010964459 0.12122415 -0.10985716 0.09575565
0.04788206 0.011241659 -0.03389178 0.100638814 -0.14038926 0.23645014 0.07951224 0.11470104
-0.09394665 -0.009477187 -0.023796132 0.14834031 -0.055279884 0.11998192 0.034651976 0.03991808
-0.1432225 0.034265865 -0.038783077 0.15722816 -0.06816172 -0.0071423575 -0.013116157 -0.0008801855
0.106081374 0.06382029 0.07013801 0.074929155 0.020669358 -0.03429747 0.0014618024 -0.020564046
-0.024749482 0.022495288 -0.11705409 -0.016658736 -0.119539514 -0.010464888 0.009834322 -0.0061773737
0.019152995 -0.035404548 -0.00581419 -0.008611355 -0.029896459 -0.024883365 -0.06331355 -0.007612027
-0.056771535 -0.01558083 0.021143354 0.0029384198 -0.010606125 -0.035529464 -0.0093567595 -0.017176108
0.049779024 0.051020835 0.03911746 -0.02136896 0.043148022 -0.026197756 0.0704324 -0.042348232
0.10751223 -0.024448037 -0.06237648 0.16766483 -0.10729612 0.034444027 -0.0916589 -0.075823046
-0.03620919 -0.09519449 0.045543548 0.08666063 0.04855137 0.13136569 -0.09318846 0.12935443
0.024721311 0.02683383 -0.09066233 0.0076974137 -0.192982 0.04425787 0.07044048 0.016630182
-0.04372447 -0.086723275 -0.030072998 -0.015740903 -0.085905604 0.010492297 -0.028380705 0.064797625
-0.048020743 -0.0089687025 0.020349266 0.10814879 -0.035711683 0.018226633 -0.007669676 -0.00044720902
0.029258903 0.012039501 0.020562464 0.0046193665 0.0031758759 -0.022012487 -0.039365746 0.043938708
0.03590994 0.043642566 -0.014070788 0.041039936 -0.10435401 -0.010259367 0.015103506 0.0046517514
-0.04679578 -0.06101435 -0.031036464 -0.034970533 -0.040136058 0.007121988 -0.09553704 0.10278011
-0.059385587 -0.077112235 -0.2007024 0.048587125 -0.029306546 -0.08462044 -0.09465867 -0.042137474
0.08055496 -0.022607228 0.12519643 -0.18089145 0.05832257 -0.0699724 -0.17139575 0.06492632
0.2554316 0.110827036 -0.042081043 0.10587338 -0.04099649 0.39627978 0.2692107 0.33841056
-0.32138222 -0.096755505 -0.14313357 -0.030825023 -0.22153771 0.103765026 0.16001791 -0.18826956
0.09718202 0.02978925 0.023750516 0.050392393 -0.114299946 0.10493708 0.13847603 0.05395815
-0.10437546 -0.10540762 -0.06937015 0.03613477 -0.1407702 0.056058325 0.010687646 -0.033062886
0.045050018 0.033709954 -0.0688963 0.08411536 -0.07206725 9.3571085e-05 0.011539517 0.0011383583
-0.04403614 -0.030911053 -0.029188953 0.03553324 -0.03458862 0.012216592 -0.052768793 0.08281983

lstm.weight_hh_l1 f4 [64, 16]
00000000: ae36 48bc 3d9d 71bb c959 b1bb fdcf c0bc
00000010: 218e dabc 0a0d 543c 6e56 923c 415e 973c
00000020: 6dfc fa3c 79cb 4dbc 6453 9b3a fd60 a6bc
00000030: 63ac 1bbc 636d 47bc 1592 863c bc1a a63c
00000040: f9a0 1a3c b419 ddbc e75e 403d 2c19 33bc
00000050: 9613 193d e3f6 3abc 2ad6 29bd 6efd febc
00000060: 827f 9ebb 44ef 4e3d b746 173d 2867 3b3d
00000070: c909 9f3c d371 6f3d fd18 40bd 7ab8 4cbd
00000080: a672 5a3c c7dc 043d 129d 8fbd a1b8 73bc
00000090: 0189 c3bd 7f9f 4a3d bfae d93d 69df 313d
000000a0: ddd3 c4bb e09d 36bd 5ff8 48bd d439 b7bd
000000b0: 444c 373d 84db d9bc b0fa 103d 731c 063e
000000c0: 63d0 dabc 9054 b7bd 0914 babd 29e8 dbbd
000000d0: 1597 0fbe 20c1 483e 735f 133e d862 b13d
000000e0: e880 e33d 71d2 ccbd be75 45bd 6405 f5bd
000000f0: 9f44 e13b f0be f6bd 4ab1 0e3e 23d6 fc3d
00000100: 8a57 3ebc abb7 ddbd 9c9a a6bc f89f b6bd
00000110: c187 83bc 4e06 313e ec44 d63d e493 733d
00000120: ac46 d43d c677 bdbc 40c8 2dbd e587 b7bd
00000130: e1bd 193e da87 ea3d fe1f 083d 14cb 3f3d
00000140: 73c6 463d 9649 36bd 1e5d 2bbc 9c40 ff3c
00000150: f30a 803c daa6 963d a562 013d f359 67bd
00000160: 11b5 40bd cd50 54bd 7289 d13b 9fec 8fbd
00000170: 626f a83c 45e9 90bb 0753 233d d7f7 363d
00000180: d4c3 0c3d c4db 973c 8733 47bd 5353 af3c
00000190: be09 36bd 65ae d93d 8915 393d e8cb 5c3c
000001a0: 2c37 8cbc d786 70bd d8bf 1bbd 2ea3 98bd
000001b0: ca0c 9c3d f113 b63b 2582 883d caac 0e3d
000001c0: f1a3 6a3c ce7b 4bbc 6633 bb3c 1411 b23c
000001d0: 9349 0e3d 7a74 16ba 6fb2 cebc d6b2 adbc
000001e0: 82e4 1cbd fce7 ef3c 2887 883b ae73 033d
000001f0: b15e 323c 24ca 163d 157f 0bbd a1bb 1bbd
00000200: 86f5 6e3b ec04 a3bd b336 44bd 7081 77bd
00000210: eabc f3bd 4620 383e 7c9c 163e b055 ae3d
00000220: a080 1a3d d2cd ccbd f824 5cbd ab8f 0dbe
00000230: e325 823d ab22 91bc 36f3 ea3d d8d8 053e
00000240: e552 233d 79c8 373a bfb5 0fbd 94ed 2f3d
00000250: 4d4d 09bd b0bb e43d a14c 7b3d a6c0 0e3d
00000260: 412e 4bbd 18b2 dcbc 816d 4cbd 7118 d5bd
00000270: d8e6 7e3d 60b8 9a3d ae2a 9e3c 4c65 763d
00000280: cf80 943b 521f ebbb c6ac c1bc ad84 8e3c
00000290: 3076 08bb 7e13 c73c b8e9 c43c dc57 a23a
000002a0: 83ff cf3b e9e5 13bd c450 fb3b 5cc2 febc
000002b0: fce1 15bd 88a5 92bc 2388 0b3d 0871 083d
000002c0: 9250 9b3d 4399 4cbd ff5f 663c aa41 8b3d
000002d0: 42c7 74bb 3250 0e3e 3850 273d c542 463c
000002e0: 7be3 f2bd 0534 8cbc 5382 85bd 807e 33bd
000002f0: 0cbf 153e e8c5 df3d 5b8f d5bb c41f 8c3d
00000300: 780b 913c 054a 34bd cb25 f8bc 4f16 8f3d
00000310: 87b3 fa3b 5eff 973d d974 7b3d 0bd7 01bb
00000320: 5975 5abd 4819 70bd 7170 7c3c 92d4 a2bd
00000330: 0c4a 553d fbcb fb3c 08d8 e33c 162e 883d
00000340: 221a b93c 3cac 14be 0949 82b9 9edb 1f3e
00000350: aacd 213e 25d2 763e fa50 b43d c2c7 b83d
00000360: 382f bd3d 1dac eabb ffa1 403d 03e8 0dbe
00000370: d7c7 0bbe 0706 c73e 5353 1cbd be4a a13d
00000380: f6cd 813d 4b0e 83bd 737d d7bc 2728 493d
00000390: d68d 34bd d6c1 233e 8ded ed3d 349f 5c3d
000003a0: 357d 77bd 73e5 24ba 8249 80bd 136e 82bd
000003b0: e457 ff3d 8d13 4b3e 7d5c 993c 8426 223d
000003c0: bc73 5f3d c854 67bd c8e9 113c 68e0 303d
000003d0: c00d f7bb d38e 143e 8825 323d 0a22 453c
000003e0: 0441 aebd 3e8a 22bc f8cf 6dbd 40a7 38bd
000003f0: fa16 f13d df42 a63d 5806 35bc 8b5f 1d3d
-0.012220068 -0.0036867403 -0.0054123146 -0.023536677 -0.0266791 0.012942562 0.017863479 0.018477561
0.030637944 -0.012560719 0.0011850414 -0.02030992 -0.009501549 -0.012172076 0.01642708 0.02027642
0.009437793 -0.026989795 0.046965506 -0.010931294 0.037372194 -0.011411401 -0.04146401 -0.031126704
-0.0048369775 0.05052115 0.036932673 0.045752674 0.019413846 0.05845816 -0.04689883 -0.049980618
0.013332998 0.032437112 -0.07012381 -0.014875562 -0.09547616 0.049468514 0.10629033 0.04342595
-0.0060067014 -0.044584155 -0.04906499 -0.08946577 0.044750467 -0.026593931 0.035395324 0.1309679
-0.026710695 -0.08951676 -0.09085853 -0.107376404 -0.14022477 0.19604921 0.1439188 0.08661431
0.11108571 -0.10001076 -0.04820799 -0.11963919 0.0068746353 -0.12048137 0.13934818 0.12345531
-0.011617551 -0.108260475 -0.020337395 -0.0891723 -0.016055943 0.17287561 0.104623646 0.05946721
0.10365042 -0.023128401 -0.0424273 -0.08961467 0.1501384 0.11451693 0.033233635 0.04682453
0.0485291 -0.04450377 -0.010459213 0.031158738 0.015630221 0.07356043 0.031588215 -0.056482267
-0.04704768 -0.05183487 0.0063945586 -0.07027554 0.020560924 -0.004422339 0.039874103 0.044669952
0.034366444 0.01853741 -0.048633125 0.021402037 -0.044442885 0.10628966 0.045186553 0.013476349
-0.017116152 -0.058722343 -0.038024753 -0.07452999 0.07619627 0.0055565764 0.06665448 0.034832753
0.014321313 -0.012419654 0.022851657 0.02173666 0.034738135 -0.0005739402 -0.025231568 -0.02120344
-0.03830386 0.029285423 0.0041665025 0.032092743 0.010886834 0.03681387 -0.03405674 -0.038020734
0.0036462261 -0.07959923 -0.047903728 -0.060426176 -0.11901267 0.17981061 0.14708132 0.08512437
0.037720323 -0.100001946 -0.053746194 -0.13824336 0.063548826 -0.017716726 0.1147217 0.13071
0.039873976 0.0007010769 -0.035085436 0.04295118 -0.033520985 0.11168611 0.061352376 0.034851693
-0.049604658 -0.02694039 -0.04990912 -0.104050525 0.06223187 0.07554698 0.01930746 0.060155198
0.0045319567 -0.0071753645 -0.023641955 0.01739725 -0.0020822398 0.024301287 0.024037227 0.0012385803
0.006347598 -0.03610793 0.00766954 -0.031098537 -0.03659247 -0.017901197 0.034065377 0.03331092
0.07583727 -0.04995085 0.014060973 0.06799634 -0.0037350212 0.1389778 0.040847987 0.01210088
-0.11859795 -0.017114649 -0.06518998 -0.04382181 0.1462366 0.109264195 -0.0065173334 0.06841996
0.017705664 -0.044015903 -0.030291459 0.06986677 0.007650796 0.07421754 0.06139073 -0.0019812013
-0.053334568 -0.05861786 0.0154076675 -0.07950701 0.05207257 0.030736914 0.027812973 0.06649415
0.022595469 -0.14518827 -0.00024849948 0.15611121 0.15801111 0.24103601 0.088045076 0.09022476
0.09237522 -0.007161631 0.04702949 -0.13858037 -0.13650452 0.38871786 -0.0381654 0.07875584
0.06338112 -0.063992105 -0.026304936 0.049110558 -0.044080578 0.15991911 0.11617575 0.053862765
-0.06042214 -0.0006290294 -0.062640205 -0.06368651 0.12467936 0.19831677 0.01872086 0.039587513
0.054553732 -0.056477338 0.008905835 0.04318276 -0.007539481 0.14507608 0.043492824 0.012032041
-0.085084945 -0.009920655 -0.058059663 -0.045081377 0.117719606 0.081182234 -0.011048876 0.038421195

lstm.bias_ih_l1 f4 [64]
00000000: 9ead dbbb dc7d d63d 6c26 debb 665e 1b3e
00000010: c944 593e d18d 3f3e ea20 f93d 5545 3a3d
00000020: a5b9 513e 70fb 453e ef74 863d 8aac 1f3e
00000030: abdb 903e bba0 813e 0f02 583e 0852 473e
00000040: cddb 93bc 0706 a43d 3b0f 33bd 2cee a5bc
00000050: 19b2 60bd e4dc c63d 0205 41bc 2a5b 3a3d
00000060: 1ab7 1d3e d41a 8b3d 4563 d53d fe1a 323d
00000070: 9922 7e3e ddff fcbd 19e3 6cbc fac8 fbb9
00000080: 913d 203b d9c0 7bbe 6190 69bd 8553 363e
00000090: 6314 c6bc e791 763e a362 9e3d 35e0 273e
000000a0: bb44 1cbe f2d0 5bbe 5492 5bbd ee1f 3cbb
000000b0: 744c 1f3e 413b 3c3e d700 71bb 0dfe 0b3c
000000c0: cb2d 5abd 31e8 ff3d 5280 0f3e 84ce 503c
000000d0: fc69 333e f2b1 833e 59b7 143e 1c16 a13d
000000e0: ad58 1a3e f35b 503e 84a4 013e 7d82 cc3d
000000f0: ef17 463e 7c50 a23e f571 0b3e 27c6 1a3e
-0.0067040464 0.104732245 -0.0067794826 0.15172729 0.21217646 0.18706442 0.12164481 0.045476276
0.20480974 0.19334197 0.06565272 0.15593162 0.28292593 0.2531794 0.21094535 0.19464886
-0.018049145 0.08008962 -0.043715697 -0.02025517 -0.054857347 0.097101 -0.011780979 0.045497097
0.15401879 0.067922264 0.10419325 0.043482773 0.24817885 -0.123534895 -0.014458441 -0.0004802419
0.002445076 -0.24585284 -0.057022456 0.17805298 -0.024179643 0.24079095 0.07733657 0.16394122
-0.15260594 -0.21466425 -0.053606346 -0.0028705555 0.15556508 0.18381979 -0.0036774182 0.008544457
-0.053266328 0.12495459 0.14013794 0.01274455 0.17520899 0.257217 0.14523067 0.07865545
0.1507289 0.20347576 0.12660414 0.09985826 0.19345067 0.3170203 0.1361769 0.15114652

lstm.bias_hh_l1 f4 [64]
00000000: 9cf4 54b9 9df6 c43d 48c5 a23d 0575 fb3d
00000010: c0e4 603e f9d6 893e 9c72 b43d e555 7d3d
00000020: b4bf 603e 93a4 073e 7b98 d43d 8539 053e
00000030: 7fd1 8b3d bfb4 9b3e 4007 633e 5d9e 923e
00000040: e9f5 9cbc bf30 ab3d 6c59 95bd 939a 81bd
00000050: 3bd9 d1bd fbd9 6a3d 2b41 8aba cd29 453d
00000060: a7a0 f7bd 1b00 203d eaea c83d fd6d 933c
00000070: 1e48 b23e c79d b4bd f5c7 be3b a17c a63d
00000080: fae1 0d3e 2877 25be 94c8 61bd 26fd 103e
00000090: 6663 19bd c102 bf3e e441 3f3e 2d4b 13be
000000a0: ccac ddbd de43 9e3d d31d 893d 95ca 76be
000000b0: ab71 c8bd 0ce0 8cbd abcd 923d 2fe5 163e
000000c0: f59a 66bd 5bb4 e73d 2dc8 0b3e c079 ed3d
000000d0: ca0e 393e 8f96 543e 874f 0c3e 701d 653d
000000e0: db11 0a3d 0c9b c03d 060f c03d 1d4d 713e
000000f0: e4d9 973e 75e1 a73e f5d3 943e 8c72 8c3d
-0.0002030902 0.0961735 0.07947785 0.12278179 0.21962261 0.26921824 0.088109225 0.061849494
0.21948129 0.13246374 0.10380646 0.13010223 0.068270676 0.30411336 0.22170734 0.28636447
-0.019160228 0.08358907 -0.072924465 -0.06328311 -0.102465115 0.05733679 -0.0010547986 0.048135567
-0.12091189 0.0390626 0.09810431 0.017996782 0.34820646 -0.08819156 0.0058221766 0.0812924
0.13855734 -0.16158736 -0.055122927 0.14159068 -0.03744831 0.3730679 0.18677479 -0.14384146
-0.10823974 0.077277884 0.06695142 -0.24100716 -0.097873054 -0.06878671 0.07168134 0.14735864
-0.056300122 0.11313697 0.1365058 0.115954876 0.18072048 0.20760559 0.13702212 0.055936277
0.033708435 0.09404573 0.093778655 0.23564573 0.29658425 0.32789198 0.2906796 0.068577856

fc.weight f4 [1, 16]
00000000: 7b44 dbbd 2e49 5ebe a860 80be f89e b7be
00000010: cd4e babe 1197 9c3e ae3a 643e 4be0 a4bc
00000020: 2732 e23e 9601 bdbe a96d 2cbd 9402 bfbe
00000030: f20e c83d c17c 11bf c54e f13e f18a b73e
-0.10706421 -0.21707603 -0.25073743 -0.3586347 -0.36388245 0.30584005 0.2228801 -0.020126482
0.44178888 -0.36915272 -0.042096768 -0.37306654 0.097684756 -0.56830984 0.4713041 0.3584819
